model.model (torch, 839872 bytes, 11 tensors)

weight f4 [44, 64]
00000000: b424 b83f fe07 65bf d7d6 443f d135 063e
00000010: ac15 903e 60a8 063f 6168 01bf ef71 d43e
00000020: c1e0 793f 6c8a 0fbf 982c 1e3d ec7a 673f
00000030: e839 40be e7ed e4bf a773 963f 12e6 9a3f
00000040: 13ec bb3e 70a5 e4bf e7f7 bd3d a92c c2be
00000050: 7655 8c3d 6b69 20be 9b1d c23f 1911 913d
00000060: d4a5 6ebc cf63 923f 65a8 00c0 3cfa 8abe
00000070: 4efa 7abf 0f1b 16c0 0268 73bf f058 7c3f
00000080: 2184 36be 7f0f 143f 231a 43bf 8783 de3d
00000090: 837e 82bf 7774 74bf 73a7 903e 67df c13f
000000a0: 6274 2a3f 0b4c 4ebf 70cc 653f ae78 b83f
000000b0: 9f4c c13e e588 8f3f 981f ba3e ae65 c73e
000000c0: 298d c73f bb63 9dbe 1091 9d3e 0f90 bdbe
000000d0: 974e ae3f dc65 b9be d88c 56bd df7f adbf
000000e0: 209c 78bf f922 353f 3988 143e 0bbf eebf
000000f0: 15c1 30bf b871 adbf 9893 933f 86ca b4bf
00000100: f2da dc3e ce13 2c3e 1b6c 7fbf b78a 03bf
00000110: 2d04 f4bd 67aa 0bc0 28a9 8ebf 63d2 09bf
00000120: a50e f73f 8b6d ee3e dad2 103f 2126 1e40
00000130: 8b2a b8be 2590 4a3f 8de6 d9bf 8e54 0ec0
00000140: c9fe e03d d833 063f 2a6e bbbf dd05 ecbe
00000150: 7c39 5bbf e306 d43e e021 26be f45a 89be
00000160: 618c 273f f1de 113f 1573 a73f f6d6 25bf
00000170: a0a2 c2bf 29df bb3e 1a07 9c3e 2fa8 463f
00000180: e8fb 353e 9261 8e3e 3f5c d53f e2c5 0bbe
00000190: 5fcc 223f e996 2e3f 5a05 523f c711 f13e
000001a0: fece 083f f955 7cbe f57d b8bf 5f75 4a40
000001b0: d058 71bf 222d 483f 96c6 683f 3ef3 933f
000001c0: 1cc4 e83e 67ed 8cbf cb19 273f a6cf d6be
000001d0: 3121 ca3d 2e1b 52be f52d 323f 78c1 c43f
000001e0: 29dd 953d 2efc 893f 88c2 d0bf b920 f53e
000001f0: 4739 b43e 8eef 8b3f 93e7 a3bf d008 cdbf
00000200: 73b4 8e3f ca15 af3f 6b1d 2fbf 50a1 92be
00000210: 6fe0 593f 5759 8b3f c544 ba3c 0077 153f
00000220: f552 46bf 3fbe 023f 3828 693f 01d5 e43f
00000230: 63c9 a13e 36e1 8fbf 591e 05bc a756 063f
00000240: 0434 a5bf 905c e83f 1252 ea3f 7613 0c3e
00000250: ec5c 873e b4fb 9a3f bd5e 843d 734a 22be
00000260: 80b8 4ebf e997 abbf aa8d 1a3f f799 a03f
00000270: 8734 89bf 3755 073e f453 ef3e 628b 473f
00000280: 2bdc b6bf 26d9 8ebe 76e4 54bd f86d 86bf
00000290: c6a0 d6bf 5ae9 8fbf 6226 e83d 1ec4 1a3f
000002a0: 3015 5b3f b16a 47bf f818 a9bf 5343 dbbd
000002b0: ec44 65bf 5bf4 27be cc30 0540 a2fc 66bf
000002c0: e181 153d ba96 663f dd69 6bbf 23e9 ff3e
000002d0: 3b8a cd3e 9777 93be 1e2c 633f a711 a23e
000002e0: 7799 323f 8b50 1cbf 8727 18bf 3eb7 cbbf
000002f0: 43d9 2a3f 677f b63f 4dc2 30bf 7b1b 0fbf
00000300: b313 d03e 3dc7 84be 5025 f03f 425e 8fbe
00000310: 5c97 d2bf f8b1 853f 3ab1 c9be 1bd4 c0bf
00000320: 96cf 1bbd ab3f 08bf 9b25 2b3f e779 f53e
00000330: f2a4 1a3f 8f6b 6abf 2c01 d23f 86cd ba3e
00000340: d0d3 51bf 243d 0e3f ceaa 5c3f 9b39 60bf
00000350: 1aaf 2dbf 0d48 ee3e b3f3 edbe c82b 713e
00000360: 1264 45c0 7642 b3be 3737 a6bf c13b 313f
00000370: 2576 4b3e c9c5 ac3f 6634 87bd 9515 a13f
00000380: 938a 24be 5d17 853f 472c 473f c6cc bb3e
00000390: d177 c53e 102c 2ebe a2ba 03be c582 13c0
000003a0: b693 fd3e e681 843f 9adc a33f 8b6f 593f
000003b0: 9496 4c3f 52a7 5dbf 5bf6 1e3e 27bf 943f
000003c0: df70 2640 2eca 5b3f d73c febf 6751 8d3f
000003d0: 72b0 4dbe ffa5 d2bf 9eda 4fbf 1b1c 1640
000003e0: 9ceb 5ebd b2cd 1840 5578 853f f3f7 80bf
000003f0: 1381 783f 31a1 0d3f 4206 5f3b ef77 b3bf
1.4386201 -0.8946532 0.7689032 0.13106467 0.28141534 0.5260067 -0.50549895 0.41493174
0.9760857 -0.5607059 0.038616747 0.9042194 -0.1877209 -1.7885102 1.1754044 1.2101462
0.36703548 -1.7862988 0.09275799 -0.37924698 0.06852238 -0.15665214 1.5165285 0.07083339
-0.014565904 1.1436709 -2.010278 -0.2714404 -0.98038185 -2.3454015 -0.9508058 0.9857321
-0.1782384 0.57836145 -0.76211756 0.108649306 -1.0194858 -0.9549021 0.28252754 1.5146302
0.66583836 -0.8058478 0.8976507 1.4411829 0.3775377 1.1213652 0.3635223 0.38944763
1.5589954 -0.3074015 0.30774736 -0.3702397 1.3617734 -0.36210525 -0.052380413 -1.3554648
-0.9711323 0.7075649 0.1450509 -1.8652052 -0.6904462 -1.3550329 1.1529417 -1.4124305
0.43135792 0.1680443 -0.9977433 -0.5138354 -0.11914859 -2.1822755 -1.1145372 -0.5383665
1.9301344 0.4656795 0.56571734 2.4710772 -0.35969958 0.791262 -1.7023484 -2.2239108
0.109860964 0.5242286 -1.4642994 -0.46098223 -0.8563459 0.41411504 -0.1622386 -0.26827204
0.65448576 0.56980807 1.3081995 -0.6478113 -1.5205879 0.36693695 0.30474168 0.7760038
0.17771876 0.27808815 1.6668776 -0.13649705 0.63593096 0.6819902 0.82039416 0.47083876
0.53440845 -0.24642171 -1.4413439 3.1634138 -0.9427614 0.7819387 0.9092802 1.1558607
0.4546212 -1.100995 0.6527373 -0.41955298 0.09869612 -0.2051818 0.69601375 1.5371542
0.073175736 1.0780084 -1.6309366 0.47876528 0.3519995 1.0932481 -1.2805046 -1.6018314
1.1148819 1.3678524 -0.68404263 -0.28638697 0.85108083 1.0886639 0.02273787 0.58384705
-0.7747033 0.5107154 0.91076994 1.7877504 0.31598958 -1.1240604 -0.008124911 0.5247597
-1.2906499 1.8153248 1.8306296 0.13679299 0.2643808 1.2108064 0.064633824 -0.15848713
-0.80750275 -1.3405734 0.6037241 1.2546986 -1.0719155 0.132161 0.4674374 0.77947056
-1.428594 -0.27900046 -0.05197569 -1.050231 -1.6767814 -1.1243088 0.11335446 0.604555
0.85579205 -0.77897173 -1.3210745 -0.107062005 -0.8955829 -0.16401808 2.0811033 -0.9022924
0.036500815 0.9007374 -0.9195841 0.49982557 0.40144524 -0.28802177 0.8873919 0.31654093
0.6976542 -0.610604 -0.59435314 -1.5915296 0.66737765 1.425763 -0.6904648 -0.55901307
0.4064003 -0.25933257 1.8761387 -0.280016 -1.6452441 1.0444937 -0.39393026 -1.506473
-0.038039766 -0.5322215 0.66854256 0.47944567 0.60407937 -0.9157037 1.6406608 0.36484927
-0.81963825 0.55562043 0.8619813 -0.875879 -0.6784531 0.46539345 -0.4647499 0.23551857
-3.0842328 -0.35011643 -1.29856 0.692318 0.19869287 1.3497859 -0.06601791 1.2584711
-0.16068487 1.0397755 0.77801937 0.36679667 0.38567975 -0.17008996 -0.12864164 -2.3048565
0.49526757 1.0352142 1.2801697 0.84935826 0.79917264 -0.86583436 0.15523665 1.1620835
2.600639 0.85855377 -1.9862317 1.1040467 -0.2008684 -1.6456908 -0.8119296 2.3454654
-0.054423913 2.3875546 1.0427347 -1.0075668 0.9707195 0.55324084 0.003403083 -1.4020976

weight_ih_l0 f4 [512, 64]
00000000: e999 943e f76b 6a3d 36fc 41be 8640 9c3c
00000010: 0ae7 883e b2f1 ae3d 99d9 e5be 9c09 27be
00000020: 534d 263f e4f9 253f 351d acbe 1779 4d3e
00000030: 813f 53bc d307 863f 1c6a 343e 0569 0ebf
00000040: ccec 63be 5697 3a3e f8c0 053f 9127 3dbf
00000050: b184 95be 0d73 233f bec4 d9bd ea1a ca3e
00000060: 173c 113f 0451 aa3e a06e 173f e068 063f
00000070: b5df 34bc 111c a73f 6f3d ab3e 050e 4abd
00000080: e01d 1e3e 026e b5bd c7f9 923e 33ac 81be
00000090: a1ae bebd d936 353d 850e 303f 9067 2fbf
000000a0: cae0 19be c36d 553f add6 24bf 659a b9be
000000b0: 0dad 843e baf2 7b3f 3475 42be 8b80 15bf
000000c0: 37d4 f1be 813b e53c 85bc 16bf 8f5e 4ebe
000000d0: b0ca cfbe bfdc 9cbd e945 103f b30a a1be
000000e0: eee3 a0be a2f0 edbe bd99 c0be 98ce 74be
000000f0: 0ac8 843d 8eb5 a3be 3982 56bf 4961 63be
00000100: d830 2a3e 7ec7 96bd 184a dbbe 60cd ae3e
00000110: f44e b13e c8fa 603d 5653 683e 7baa 1abf
00000120: 80c0 8d3c 02bd 2d3f 1265 d33e 8a81 6dbd
00000130: dba1 043f 3cdc 67bf 3c52 9dbc ae77 f93d
00000140: 6d5c 22bd bc16 90bf 8898 753e 084e 5bbe
00000150: a002 09bf ccaf 0d3f e7d5 05bf 6ae0 cabe
00000160: daf3 b7bd 53b4 e0be 892a a4bd 3952 5b3f
00000170: 972d 23bf 8eb3 793d 1d08 2ebf f071 333f
00000180: f7e6 59bd ecfc f1bd afb0 fb3e 0731 57bf
00000190: 6f8b d7be 3289 af3c 99f6 3ebe 9203 7c3f
000001a0: 4b0a 823f b911 68be 83b4 bb3e 6294 163f
000001b0: f03d 31be ca17 053e 9c87 87be 30e2 9ebd
000001c0: 9d6d 783e 37f4 e23e c19c 073f 24f3 5b3e
000001d0: e767 e23e 89f6 64be b040 813e 0408 18be
000001e0: 87b5 943e e717 a9be 20e1 9ebe aa3c 1bbf
000001f0: 6511 4b3f c6bb 4cbe 0f98 8a3e 5953 f83e
00000200: 5cf4 11bf c9ee 04bf 7d40 91be 9dd1 a43e
00000210: 035e 5bbd 118b 833e 9bd4 e7be c080 febd
00000220: 02f9 82bf d078 d6be 9bcf f53e dc10 f4be
00000230: 57c5 d8bd 447b 463e 54c7 ccbd a3bc f1bc
00000240: 9bbc ddbe 73cb 0d3e 6a64 e03e 57d7 083e
00000250: bb43 86be e372 c23d 7381 35be cd51 5b3d
00000260: 9f06 66be 50ab 3fbf 28f4 30bf 3fa5 e43c
00000270: 2099 28be f4ad 753e 6cd7 d93d c227 15bf
00000280: 87a6 3f3f dbf8 08bc 9e86 903f 6189 27bc
00000290: 67c1 023f 4736 de3c f4f7 6fbd 48ab 20bf
000002a0: 219b 633f 66f6 5d3f 1861 863e a351 3a3e
000002b0: 7721 ae3e de2b c73e f9ca b2be 7c64 f5be
000002c0: cc29 4abf cd90 8dbd 995f ad3e 2bc7 d4be
000002d0: 1fb1 7abe a315 93be 788f 1f3e 9133 1fbc
000002e0: 5e5a 51bf 59e7 a23e 6be5 13bf f579 48be
000002f0: 1f22 3f3f a025 f73e efd8 2f3f 57b0 8bbe
00000300: 1939 58bf a646 663f b3dc a93d 55e9 813e
00000310: c285 723f 2353 283f f251 8e3f 9282 91be
00000320: 1a05 7a3e 412f 8a3e 9838 26bf deaa 8c3e
00000330: 5459 8e3f 2616 303e 8f79 cbbb dc26 093f
00000340: 0b95 17bf 37d9 cd3e 7a17 423f de56 703f
00000350: 5aae 163f 510f 21bf 4876 7e3f 6ae4 15bf
00000360: 7e9b 2cbe 8685 3a3b 613f 203d 4231 3cbf
00000370: 45ad b23e 43db 853d bc46 7c3e 9e79 d1bc
00000380: 847b 233f 000f c0be 29dd b4be 61f1 73bf
00000390: 6167 883e dd20 0b3f 6790 49bf c907 5fbe
000003a0: ee8d aabf e4b7 0ebf 89a5 3dbf a7a1 26bf
000003b0: f261 c9bf c8ac 5f3e 1638 a3be 8089 353f
000003c0: 7d73 763d d541 66be 44e7 8bbe 867f d83e
000003d0: 03de 8e3e 6417 2fbf 2113 a8bf 5d5a 2f3f
000003e0: 0e83 4a3f 6662 ecbe 9453 763e 8984 a93e
000003f0: 54a5 653f 995c 263f 6bb0 02bf b355 c03e
0.29023674 0.05723187 -0.18943867 0.019073736 0.2673877 0.085421935 -0.44892576 -0.1631226
0.6496174 0.6483443 -0.33616033 0.20065723 -0.0128935585 1.0471138 0.17618603 -0.55629
-0.222583 0.18221793 0.5224757 -0.738885 -0.29202798 0.6384743 -0.10633229 0.3947366
0.56732315 0.33264935 0.59153175 0.52503777 -0.011039664 1.305544 0.33445308 -0.049329776
0.15441084 -0.08858873 0.2870619 -0.2532669 -0.093106516 0.04424176 0.68772155 -0.685174
-0.15027156 0.8337061 -0.6439007 -0.36250606 0.25913277 0.98417246 -0.18990022 -0.58399266
-0.4723222 0.027982475 -0.5888141 -0.20153259 -0.40584326 -0.076592915 0.56356674 -0.31453475
-0.31423897 -0.4647265 -0.37617293 -0.23906934 0.06483467 -0.31974453 -0.83792454 -0.2220508
0.16620195 -0.07362269 -0.42829967 0.34141064 0.3463055 0.054926664 0.2268804 -0.6041638
0.017303705 0.6786653 0.41288048 -0.057984866 0.5180947 -0.90570426 -0.019204251 0.1218103
-0.039638925 -1.1256938 0.23983967 -0.21416485 -0.5351963 0.5534637 -0.52279514 -0.3962434
-0.08982058 -0.43887576 -0.080159254 0.85672337 -0.6374144 0.060962252 -0.6798113 0.7009573
-0.05319878 -0.11815819 0.49158236 -0.84059185 -0.42098567 0.021427725 -0.18648757 0.9844295
1.0159391 -0.2266301 0.36661157 0.58820164 -0.17308784 0.12997356 -0.2647065 -0.077579856
0.24260564 0.44326946 0.5297356 0.2147947 0.44219896 -0.2235967 0.25244665 -0.14846808
0.29044744 -0.3302605 -0.31031132 -0.6063944 0.79323417 -0.19993505 0.27069137 0.4850109
-0.5701349 -0.5192686 -0.28369513 0.32191172 -0.053556453 0.25692037 -0.45279393 -0.12426901
-1.0232241 -0.41889048 0.48009953 -0.47669113 -0.105845146 0.1938296 -0.09998956 -0.029508894
-0.43307957 0.13847141 0.4382661 0.13363396 -0.2622355 0.09494569 -0.17725162 0.05354481
-0.22463463 -0.7487078 -0.6912255 0.027910827 -0.16464663 0.23992139 0.106367916 -0.5826379
0.74863476 -0.008360113 1.1291082 -0.010225625 0.5107636 0.02712549 -0.058586076 -0.62761354
0.8890858 0.867041 0.26245952 0.18195204 0.34009907 0.38900656 -0.3492048 -0.47928226
-0.78970027 -0.06912384 0.33861998 -0.41558203 -0.24481629 -0.28727445 0.15582073 -0.009716884
-0.81778514 0.3181713 -0.5777194 -0.19577773 0.7466144 0.48270893 0.6869039 -0.27282974
-0.84462124 0.8995155 0.08294048 0.2537333 0.9473535 0.65751857 1.1118758 -0.2841993
0.24416009 0.26989177 -0.64930105 0.2747411 1.1121011 0.17195949 -0.0062095593 0.5357492
-0.59211797 0.40204784 0.7581707 0.9388255 0.5885979 -0.62913996 0.9939923 -0.5855166
-0.1685619 0.0028460934 0.039122943 -0.7351266 0.3489782 0.065359615 0.24636358 -0.025570687
0.63860345 -0.37511444 -0.35324982 -0.9529019 0.26641372 0.5434702 -0.78735965 -0.21780314
-1.3324564 -0.55749345 -0.7408071 -0.6509041 -1.5733016 0.21843255 -0.31878728 0.70912933
0.060168732 -0.2248605 -0.2732488 0.42284793 0.27903756 -0.68395066 -1.3130838 0.6849726
0.79106224 -0.46168822 0.2405532 0.3310893 0.89705396 0.6498504 -0.5105044 0.37565383

weight_hh_l0 f4 [512, 128]
00000000: 718c 1a3f 7f72 2fbe 23f6 ac3e 492d 23bf
00000010: 7074 18be 6bf4 9abe 502b 053f 2502 903c
00000020: 0f6e 0e3d f867 063f 5b18 793e 729f 56be
00000030: f40b 883e 644e 10be 446d a0be ff8e 10be
00000040: 632d 563f 7cfb 86bd 273c e7be 52ec 103f
00000050: 1fc8 153e c934 9fbe 1c98 8d3f 70ab aebd
00000060: aa55 103f 2506 0abf 6da1 08be ab7b 643f
00000070: c013 fcbe dfc8 a8be a09d 56be 9a20 f83e
00000080: 7731 28be f7b0 773e 1b3d bcbe 3ab1 33bf
00000090: 10fc d03e 0bea 5e3f afc1 443d 67bb 663e
000000a0: d903 723e 08f7 223f 5ea1 00bf 67f1 b6bd
000000b0: 2483 ac3d fca4 96be c9aa d53e c1d2 ee3d
000000c0: 3510 223d f92e 0bbf 2feb 1f3d d5a0 793d
000000d0: 5d43 ccbd bc78 27be ec6d 14be b73b 14be
000000e0: 73aa 9d3e bdf8 9b3f ccb6 ed3e 5cfd d4bb
000000f0: c098 543f ae7e 0ebf 42f3 9cbf fe9f af3e
00000100: 7981 073f f954 a53e 4fef 793d 5411 c73e
00000110: 5530 b33e e9a0 e93f 4910 c8be f7cd 8a3f
00000120: 6f6c 553f 95ee d3bd 6818 8abf 13e5 48bf
00000130: e967 2f3f eb47 f43e 75d6 4e3f 47cc 8a3e
00000140: 2792 2bbe 9f12 b1be 8aed ccbe d35a 333d
00000150: 219b 0e3f 9e8b 5bbe 5a0b e6bd 10f9 09bf
00000160: 41cf fa3e ee6f 03bf 3508 36be 4a0a 973d
00000170: c087 52bc 30a9 113f c8f9 f73e e84d de3e
00000180: 5606 27bd 423e 2ebe fa26 623e 67c5 433d
00000190: 947e f63e d49b 21bf 0938 2f3f a7cb e83e
000001a0: 44ec a5be 660b e03e fa39 da3d db6d 013e
000001b0: 2252 983e 5127 1e3f eb86 3f3f e665 c73e
000001c0: ef9f 503e c497 0e3f f368 ab3e 1f07 bebe
000001d0: 82c7 fb3f 187d 00bf 9039 6f3f 5d72 f93e
000001e0: 2ac2 c6be ca26 fdbe ecad 32bf 6c46 213f
000001f0: 9826 883e 3c5f a7be 62bc 863e 05b3 6c3e
00000200: f985 24be 31e6 6a3e e04e a13e 4dfc 9e3d
00000210: b9b2 963f 94f4 02bf ef85 a53e 2d99 8b3d
00000220: 7d76 9dbd 9bc0 043f a021 9d3d bea3 fdbc
00000230: d1a8 853e a32f 45bf 92ca d93c d76d d9be
00000240: 36f7 76bf 62dc d43d 5b0c 4d3e 675a 003f
00000250: beae 6ebe b719 813e 9255 2fbe 2881 793f
00000260: 109a 24bf b910 6bbe e3c2 113f ed87 83bf
00000270: c84d cc3e b0ca 68be ce6f 0cbe fb19 b43e
00000280: 3843 7f3f 5163 243f 609b 513f 5885 06be
00000290: 1b62 8ebe 2e53 97be 28ff cabe f809 3b3f
000002a0: ceee 26bd 9e96 fc3d dd8c abbd eea2 6dbe
000002b0: 8b6e d0bc 443f 563e ca62 8b3f 16a5 233f
000002c0: a096 7c3e 03c5 0e3e ca8d 0e3e bcc0 b1bd
000002d0: f87a 9cbd d387 d2bb 42df efbe e01b 4fbf
000002e0: 1e73 163f c1be 8c3e 417f 80bf c60d d43f
000002f0: 9110 523f 12e6 19bf 634f 27be c512 c8be
00000300: af96 d33e 2a3c d5be df57 883f 17e2 6b3f
00000310: e968 69bd 9c59 743f c467 4f3e 4a78 803f
00000320: e900 593f 40f9 f7be 930f d7be 6e96 26bf
00000330: 3cac 583f 8adf c43f 5f48 1c3d d96e f4be
00000340: c5e2 f13e f36f d73e afbb 023f d24e adbe
00000350: edbf 433e f753 023f a05b bebd cf3d f2bd
00000360: fe1b 74bd 80b8 1dbe 64da 0ebf 830c a7be
00000370: ce67 b13f ed9a 37be dfd6 b43e 4414 46be
00000380: e175 2a3f 49fc fb3e 1cd8 b9bd 8d8d e93e
00000390: e745 5b3e bf32 b1be d6c2 aabe 3ccc 47bf
000003a0: 0137 cb3f e05a 24bf a783 0e3f fb08 043f
000003b0: 5eed 3cbf 7054 07be 0a5a 3ebf c50c c73e
000003c0: ee4b ff3e 7985 9f3e 1de2 1a3f 019d 8ebd
000003d0: ceac 7fbf ae76 20bf e5d4 f13e 2b04 28bf
000003e0: a689 143f 304b 7b3e cc5c dbbe 4e60 abbe
000003f0: 599c d13e 6eaf 2a3e 1cac 50be d88c 73bf
0.60370547 -0.1713352 0.33781537 -0.63740975 -0.14888167 -0.302646 0.52019215 0.017579148
0.03477293 0.52502394 0.24325697 -0.20959261 0.2657162 -0.14092404 -0.31333363 -0.14117049
0.83663005 -0.065909356 -0.4516308 0.56610596 0.14627121 -0.3109496 1.1062045 -0.08528793
0.56380713 -0.53915626 -0.13342829 0.892512 -0.49233818 -0.32965752 -0.20958567 0.48462373
-0.1642512 0.241886 -0.3676537 -0.701923 0.40817308 0.8707587 0.048036274 0.22532426
0.2363428 0.6365819 -0.50246227 -0.089327626 0.084234506 -0.29422748 0.4173186 0.11661292
0.039566237 -0.5436855 0.039042648 0.060944397 -0.09973786 -0.1635465 -0.14495057 -0.14475904
0.30794105 1.2185284 0.46428525 -0.0064999294 0.8304558 -0.5566205 -1.2261736 0.34301752
0.52931935 0.32291391 0.061019238 0.38880408 0.34997812 1.8252231 -0.39074925 1.0844105
0.8336858 -0.1034824 -1.0788698 -0.7847454 0.6851793 0.4771112 0.80795985 0.27108976
-0.16754971 -0.3458452 -0.40024978 0.04378779 0.5570546 -0.21439978 -0.11232634 -0.53895664
0.48986247 -0.51342666 -0.17776568 0.07375009 -0.012849748 0.56898785 0.48432755 0.43418813
-0.040777527 -0.17015937 0.22085181 0.04779568 0.48143446 -0.631284 0.6844488 0.45467874
-0.3240682 0.43758696 0.106555894 0.12639563 0.29750162 0.6177874 0.74815243 0.3894493
0.2037351 0.55700326 0.33478507 -0.37114808 1.967026 -0.5019088 0.9344721 0.48720065
-0.3882001 -0.49443656 -0.69796634 0.6299808 0.26591945 -0.32689846 0.263156 0.23115166
-0.16066732 0.22939374 0.3150549 0.07762966 1.1773292 -0.51154447 0.32328746 0.06816325
-0.076886155 0.5185639 0.07672429 -0.030961867 0.2610536 -0.7702581 0.02658585 -0.42466614
-0.96470964 0.10393597 0.20024244 0.50137943 -0.23308846 0.2521493 -0.17122486 0.974627
-0.6429758 -0.22955598 0.56938 -1.0275856 0.39903092 -0.22733569 -0.13714525 0.35176072
0.9971194 0.64214045 0.8187771 -0.13136804 -0.27809224 -0.2955565 -0.39647794 0.73062086
-0.040755086 0.123334154 -0.08376477 -0.23206684 -0.025443336 0.20922571 1.0889523 0.63923776
0.24666834 0.13942342 0.13921276 -0.08679339 -0.07640642 -0.006424883 -0.4685002 -0.8090191
0.58769405 0.27489284 -1.0038835 1.6566703 0.8205653 -0.60116684 -0.16338877 -0.3907682
0.413259 -0.41647464 1.0651816 0.9214186 -0.056984816 0.95449233 0.20254427 1.0036709
0.84767014 -0.4843235 -0.4200407 -0.6507329 0.8463781 1.5380719 0.038154956 -0.4774082
0.47243324 0.42077598 0.5106763 -0.33849198 0.19116183 0.5090937 -0.0929482 -0.11828195
-0.059597008 -0.15402412 -0.5580199 -0.32626733 1.3859804 -0.17930193 0.35320184 -0.19343668
0.6658612 0.49215916 -0.09074423 0.45615807 0.21413384 -0.3460903 -0.33351773 -0.7804601
1.5876161 -0.64201164 0.55669636 0.51576203 -0.73799694 -0.13215804 -0.7435614 0.3887693
0.49862617 0.3115652 0.6050127 -0.0696354 -0.99873054 -0.6268109 0.47232738 -0.6563136
0.58022535 0.245404 -0.42844236 -0.33471912 0.40939596 0.16668484 -0.20378155 -0.95136786

bias_ih_l0 f4 [512]
00000000: b9da b13e 69da 15bf a28c 0cbf c9ee bc3e
00000010: 4cfc ae3e e217 52be 576f 34bf 3cb9 51bf
00000020: 503e 6abe e5f1 a3bf b1d9 173e 64d9 0bbf
00000030: 419f 84be ce9b 3d3f bb74 8f3e 1405 2b3f
00000040: 2e2e 233f 8a83 4fbf 01d7 933f 5c25 1cbf
00000050: a5f6 53bf 0a0d 273f f076 5cbe 3b9b 173f
00000060: ada4 443e 049b 1f3e eb49 a3be 252c 1c3f
00000070: 7aa2 51bf 2116 97be 985b 37bf 731b da3d
00000080: 5b65 d6be 698b 37bf f088 20bf fe21 c9be
00000090: 1819 ad3f 5d4e 15bf be69 443f cab0 46be
000000a0: 4585 d33e f741 03bf 03eb 8f3e e7d0 61bf
000000b0: 9db2 9fbe 4058 563f 2a5f b63f b27d 07bd
000000c0: d7e6 883e beec 28bf b03b e83f df07 ab3e
000000d0: 0339 823f 6c3a 04bf 2a43 24bf a168 643f
000000e0: 8168 1abf ca7b 5abf cc58 d0be a16d 6c3e
000000f0: 4ec6 ce3e 095b febe b799 d9be 0d71 fabd
00000100: ca19 84bf 58f5 b53e 9acd 973e 0b7b 343f
00000110: e231 ed3e d4b7 813e 51ec 263f 6166 1f3f
00000120: 6aa5 053e a4e3 783f 6c4b d83e 969d 8f3f
00000130: 6633 02bf c111 91be fee7 b83f beed ecbe
00000140: 4901 683e 6962 92bd 3ee9 203e e6f0 b73d
00000150: 8075 0fbf d0d3 613c 3b11 2fbf ea41 a13e
00000160: 5842 da3e 7125 23bf 9c20 d23e df62 cbbd
00000170: d396 863f 5a66 5f3e 7e48 79bd 9129 96be
00000180: 9290 9abe bf28 09be ee69 483f 58ac a8be
00000190: 515e 17bf ab26 15bf a850 afbe 069e 0ebf
000001a0: d9f2 ab3f 4498 60be a899 f9bd 932d 3ebf
000001b0: f9df 15bf 8883 6abe 71c3 413e ba7f 04bf
000001c0: c816 c7be f0ae 3ebf face 273f 7bcf a93e
000001d0: a652 a83e 9879 b0bd ac14 92bf 5188 23bf
000001e0: 6988 43be d7c9 b03e 3d7b e9be 3549 b9be
000001f0: 3b8b 513f fd21 55bf bdea 39bf dae2 a13f
00000200: 5dc7 8dbf f386 1d3f 55be 483f c703 a0be
00000210: 4d7a 45bf ed2d 07bb ec87 923e c545 7bbe
00000220: 24e8 373f 7b72 9bbe 9a79 df3e 759e 49be
00000230: ec4a f8be e80e 443e d482 903e 1396 503e
00000240: abc1 673b 6b94 d8bd 9875 bebd 0160 ca3e
00000250: fbb3 ab3e 02a6 a5be 5fab 8dbe 3053 8fbe
00000260: 8e1c a8be b742 acbd 51b0 b7bc 607c debe
00000270: ddad d5bc 52e0 013f 95be e93e aa07 02bf
00000280: fdd9 2fbe 9648 eb3e 99db 74bd 47a8 673e
00000290: c4e2 eabe cd6d 073e 4fb2 f8be 693f 00be
000002a0: eecc d3be 35a8 343e ec4a 083e 2612 92be
000002b0: 0e64 d13d d57a 0dbf e769 40bf e04c ae3d
000002c0: a715 c0be 65c5 67be e746 17bf 039e 16be
000002d0: 0729 733e 3b0b 0abf b84e 553e 4444 ccbe
000002e0: 77f9 8a3e f32e 70be 6b6f 0fbf d3de e7be
000002f0: 42b1 013f 38de 23be 3252 6abe c240 20be
00000300: dbc2 28bf 083e 62be b2cf 72be 1024 7ebe
00000310: 2afa 17bf 4f4f 153f b2cf 79be fa37 743f
00000320: 0c25 a9bb abba 85bf 7398 efbe d27f 0ebc
00000330: 5696 5cbe 82af a23e a28e 4abe 1d52 89be
00000340: d3ae fbbe 39a6 1abf e19d fcbd 33b8 ecbe
00000350: 237d d63c 4f8c 5dbe 93c5 91bd 7ea9 86be
00000360: caf1 ddbd 22ae d8be c7bb df3e 7284 093f
00000370: 50e7 86be 68a5 38bf 3694 85be 310d 0e3e
00000380: f555 f33e 4679 26bf bfa6 83bd 9d45 73be
00000390: 7bdb ffbd 9dc3 69be d862 acbf 589d 583e
000003a0: 2595 b9be 03d4 92bf def5 0abf c9b1 dbbd
000003b0: 660b 1abd 6fed 923f 6c22 47be b8bd 17be
000003c0: 73b1 6fbf d47f fe3d f703 613d dba1 26bc
000003d0: 3585 3cbe ddef e4bd 7474 1cbf d74d 1dbf
000003e0: acc7 fa3e dcb9 5cbf 8355 61be 8d50 263e
000003f0: 9959 d4bd 5a63 19be a8f1 e1bd 9600 29bf
0.34737185 -0.5853639 -0.5490209 0.3690093 0.34176862 -0.20516923 -0.7048239 -0.8192327
-0.22875333 -1.2808195 0.14829136 -0.54628587 -0.2590275 0.74065864 0.28018746 0.66804624
0.6374234 -0.8106009 1.1549989 -0.60994506 -0.82798225 0.6525427 -0.21529746 0.5922124
0.19203444 0.15586478 -0.31892332 0.6100486 -0.81888545 -0.2950907 -0.71624136 0.10649767
-0.41874203 -0.716971 -0.6270895 -0.39283746 1.3523283 -0.583227 0.7672385 -0.19403377
0.41312614 -0.5127253 0.28108987 -0.88209385 -0.3119096 0.8372841 1.4247792 -0.033078857
0.26738617 -0.6598624 1.8143215 0.33404443 1.0173649 -0.51651645 -0.64164984 0.8922215
-0.6031571 -0.8534514 -0.40692747 0.23088695 0.4038567 -0.4967883 -0.42500088 -0.12228594
-1.032037 0.35538745 0.2964905 0.7050025 0.4632712 0.25335562 0.6520434 0.6226559
0.13051382 0.9722235 0.42245042 1.1219966 -0.5085968 -0.28333858 1.4445798 -0.46275133
0.2265674 -0.071476765 0.15713975 0.089814946 -0.56038666 0.01378341 -0.68385667 0.314956
0.4262874 -0.63729006 0.41040504 -0.099309675 1.0514778 0.21816388 -0.06086015 -0.29328588
-0.30188423 -0.1339445 0.78286636 -0.32943988 -0.5912829 -0.5826213 -0.34241223 -0.55709875
1.3433486 -0.21933085 -0.12187511 -0.7428829 -0.5854488 -0.22901738 0.18922211 -0.51757395
-0.38884568 -0.74485683 0.65550196 0.33166108 0.32875556 -0.08616942 -1.1412559 -0.6387988
-0.19095005 0.34528992 -0.45601836 -0.36188665 0.81853074 -0.83254987 -0.7262381 1.2647355
-1.1076466 0.6153404 0.78415424 -0.31252882 -0.7713974 -0.002062674 0.28619325 -0.24538334
0.71838593 -0.3036078 0.43647462 -0.19689353 -0.4849466 0.19146311 0.28224814 0.20369749
0.0035363238 -0.105751835 -0.09299773 0.3952637 0.33535752 -0.32353216 -0.27669808 -0.27993155
-0.32834285 -0.08411162 -0.022422941 -0.43454266 -0.026083881 0.5073291 0.45653215 -0.50792944
-0.17173 0.45953816 -0.059779737 0.22622786 -0.45876133 0.1322548 -0.4857354 -0.12524189
-0.41367286 0.17642291 0.1330983 -0.2852947 0.10224162 -0.5526555 -0.75161594 0.085107565
-0.3751652 -0.22633894 -0.59092563 -0.14708714 0.2374612 -0.53923386 0.2083081 -0.39895833
0.27143452 -0.2345541 -0.56029385 -0.4528719 0.506611 -0.16002738 -0.22882918 -0.15649703
-0.65922326 -0.22093976 -0.23712042 -0.24818444 -0.59366095 0.5832414 -0.24395636 0.95397913
-0.005161887 -1.0447592 -0.46795997 -0.008697467 -0.21541724 0.31774527 -0.19780973 -0.2682046
-0.49156818 -0.60409886 -0.123348005 -0.46234283 0.026182717 -0.21635555 -0.071177624 -0.26301187
-0.10837133 -0.42320353 0.4369795 0.5371772 -0.26348352 -0.7212739 -0.26089638 0.1387222
0.47526518 -0.650288 -0.06428289 -0.23757024 -0.124930345 -0.22828527 -1.3467665 0.21153772
-0.362466 -1.1470951 -0.54281414 -0.10727269 -0.037608527 1.1478709 -0.19446725 -0.14818466
-0.9363014 0.12426725 0.05493542 -0.010170425 -0.1841019 -0.11178563 -0.61115193 -0.614469
0.48980463 -0.862211 -0.22005276 0.16241665 -0.10368652 -0.14979306 -0.110324204 -0.6601652

bias_hh_l0 f4 [512]
00000000: 740c 843e 15d9 30bf 6c29 16bf c1f3 b63e
00000010: bd44 ef3e 361b aebe 164b 15bf 5024 56bf
00000020: 4719 66be 6f06 adbf d082 223e 0c0b d3be
00000030: edfa c1be 7f66 223f 3527 7c3e 00db 223f
00000040: 6395 473f 8fb4 50bf 84ab 933f a0f7 21bf
00000050: ba49 39bf 42bd 223f 9f99 4ebe 811c 2d3f
00000060: b877 393e 61a9 613e 83ab e2be 2c7f e43e
00000070: 6401 4ebf 9604 a6be a49b 36bf 2288 bf3d
00000080: 0360 babe 82be 3bbf 34ee 3bbf 7076 f7be
00000090: 9f58 ae3f 135e e7be 6030 2a3f ef36 3fbe
000000a0: b4a3 8d3e fc26 03bf 7b9f db3e bcd3 4abf
000000b0: 3f99 93be 4797 753f 9b5e b83f 6319 08be
000000c0: 5315 d33d ca1e 2fbf 98a7 d93f a613 5a3e
000000d0: 660e 753f 7b17 04bf cdc1 06bf 4b05 573f
000000e0: b064 febe fae2 7dbf 3cff e8be 37cc 9a3e
000000f0: 63c4 f33e 320e f9be 7b7f d3be 1744 7ebe
00000100: d417 80bf 5298 df3e a391 ba3e be86 283f
00000110: 0f1f 043f 0508 013e 20fd 233f 09c7 053f
00000120: 3bf3 583e fce7 773f 718d fa3e 9d52 9b3f
00000130: ae46 ddbe 7cdd 78be c6c1 ca3f 3f20 e6be
00000140: f6eb 533e 2426 3ebd 754c 143e 037a ec3c
00000150: d4ca 12bf 68d0 db3d a791 34bf 53de 953e
00000160: 7368 023f 7879 1dbf 68d8 b63e 8184 15be
00000170: afe0 973f 1f2d 113e 449d bf3d 8834 aabe
00000180: a1c8 99be d16a e0bd c3d1 223f ae77 a5be
00000190: 97be 0ebf d23a 18bf fd6d a3be dfdc 07bf
000001a0: 74f6 ae3f 7fca 9bbe f3ec 0bbe 71dd 30bf
000001b0: 9b76 03bf 023b 51be e87f 993e 504b 00bf
000001c0: 1374 a1be 68ce 20bf 7994 0c3f 08cb a93e
000001d0: 9699 ac3e a97f 00be 09b3 8bbf 998f 1ebf
000001e0: b0c4 ccbd 4379 a43e 5670 98be 23f6 a1be
000001f0: d78d 433f 0ab0 62bf 4e80 34bf 8aa5 9b3f
00000200: 5fdc 94bf e541 3f3f 224a 403f 540c babe
00000210: 84a7 43bf 865b 0b3e 6b1e 873e 47d8 66be
00000220: bb13 383f c27d 8cbe bd33 bb3e 2b5f dfbd
00000230: eb15 bebe b69b 0f3e baec a33e 15cd 7b3e
00000240: 9407 fd3c 679e 0ebe aac0 4bbe 6063 d53e
00000250: 5a86 a03e 3886 bbbe bca9 4abe d5e6 d5be
00000260: f3f0 9dbe 3daa 33be be22 0c3e 3709 00bf
00000270: 7eec 59bc f8f7 143f cd38 a63e 0a20 02bf
00000280: 1a86 ecbd 0f20 ca3e 9daa 07be eaec 793e
00000290: 5547 e7be af4f 843e 7cb8 00bf d081 cabc
000002a0: e0b1 fabe 7a24 3c3d f110 e13c e510 b5be
000002b0: 0c25 ca3d b13b 1dbf 7518 4cbf 999f 813d
000002c0: 52ed 01bf fe13 85be 3a2a 13bf a099 07bd
000002d0: c98b cf3e f0e4 f8be cd55 143e 466c c2be
000002e0: b0fc 523e 728a 8ebe b8b0 15bf 5c76 05bf
000002f0: 4809 083f e02c 44be ab63 12be 51c5 18be
00000300: 8d58 38bf 8899 b2be 9762 9dbe aa3c 66be
00000310: b2f1 1ebf f06e 0a3f 144f 54be 72dd 7c3f
00000320: 5e8f 8fbd 1efd 84bf 7489 e8be 2263 2cbd
00000330: a2b3 7cbe aa9d 9a3e f206 99be c1ea 97be
00000340: de0f f4be f35c 26bf 8c1c 65be 70e6 ecbe
00000350: c8dc ab3c cbca 2cbe 16ed febd 34f3 afbe
00000360: 9193 14be 4904 e7be 0a20 ac3e 355e 263f
00000370: e415 90be e0b0 44bf 6fe4 67be 3067 943d
00000380: ede0 193f f0c0 34bf f355 89bd fe8e 2fbe
00000390: 7bb9 fbbd 3f92 1fbe 59b3 b6bf a55f 9b3d
000003a0: 860b c8be 2fab 8cbf ab2a 02bf 0f7d 75be
000003b0: 444a d6bd f781 973f 485f 4abe d356 82be
000003c0: 70a3 5ebf acc4 dc3d a69d 83bb 77cc 3a3d
000003d0: 9f09 44be 7884 0ebb a940 1bbf 604e f6be
000003e0: 3e8c 153f e191 49bf e346 e5bd d7ae 803e
000003f0: 4fad f03b 5f93 3abe 5c6f 7dbe dbc6 41bf
0.2579075 -0.6908124 -0.58656955 0.35732844 0.4673213 -0.34005135 -0.583177 -0.8364916
-0.2247058 -1.3517588 0.15870214 -0.41219366 -0.37886754 0.63437647 0.24624331 0.6361542
0.7796232 -0.8152551 1.1536717 -0.6326847 -0.7237812 0.63570035 -0.2017579 0.6762162
0.18112075 0.22037269 -0.44271478 0.44628274 -0.8047087 -0.32425374 -0.7133124 0.09352137
-0.36401376 -0.73337567 -0.73410344 -0.48332548 1.3620795 -0.4518896 0.66480064 -0.18673299
0.27663958 -0.5123136 0.4289511 -0.7922933 -0.28827855 0.95933956 1.4403871 -0.13290934
0.10306802 -0.68406355 1.700427 0.21296558 0.95725095 -0.5159833 -0.52639467 0.8399245
-0.49686193 -0.99174464 -0.45507228 0.3023393 0.4761077 -0.48643643 -0.41308197 -0.24830662
-1.0007272 0.436709 0.36439237 0.658306 0.5160989 0.12600715 0.64058113 0.5225683
0.21186535 0.96838355 0.48936036 1.2134587 -0.43217987 -0.2430324 1.5840385 -0.44946477
0.2069548 -0.046423092 0.14482291 0.028866773 -0.5734074 0.1073311 -0.7053475 0.29271182
0.50940627 -0.6151347 0.3571198 -0.14601327 1.1865443 0.14177369 0.09356168 -0.33243203
-0.3003588 -0.109578736 0.6360132 -0.3231787 -0.5575957 -0.5946475 -0.31919852 -0.530714
1.3668962 -0.3042793 -0.13664608 -0.6908789 -0.5135285 -0.20432666 0.29980397 -0.5011492
-0.3153387 -0.6281495 0.5491405 0.33162713 0.33710927 -0.12548698 -1.0914012 -0.6193786
-0.09998453 0.32123765 -0.29773206 -0.316331 0.76388305 -0.88549864 -0.7050828 1.2159894
-1.1629752 0.7470992 0.7511312 -0.3633753 -0.76427484 0.13609132 0.26390395 -0.22543441
0.71905106 -0.27439696 0.3656291 -0.10906824 -0.37126097 0.14024243 0.32016546 0.24589951
0.030887403 -0.13927613 -0.19897714 0.4167738 0.31352502 -0.36625838 -0.19791311 -0.41777673
-0.30847892 -0.1754541 0.13685128 -0.5001406 -0.013301013 0.5819087 0.3246521 -0.5083014
-0.11549015 0.39477584 -0.13248678 0.24406782 -0.4517161 0.25842044 -0.502815 -0.024720103
-0.48963833 0.045933224 0.027473899 -0.35364452 0.098703474 -0.61419207 -0.7972482 0.06329269
-0.5075275 -0.25991815 -0.5748631 -0.033105493 0.40536335 -0.48612165 0.14485855 -0.3797323
0.20604205 -0.2784 -0.58472776 -0.5213373 0.5313916 -0.19157743 -0.14295833 -0.1491902
-0.7201012 -0.3488276 -0.3073928 -0.22484079 -0.6208755 0.5407553 -0.20733291 0.987754
-0.07009767 -1.0389745 -0.45417368 -0.042086728 -0.246779 0.30198413 -0.2988811 -0.2967129
-0.47668356 -0.6498558 -0.22374171 -0.4626956 0.0209793 -0.16874234 -0.12447564 -0.34365237
-0.14509417 -0.45120457 0.33618194 0.649875 -0.281417 -0.7683239 -0.22645734 0.07246244
0.60108835 -0.706069 -0.06705847 -0.17144391 -0.12291237 -0.15583132 -1.4273483 0.07586602
-0.39071292 -1.0989741 -0.50846356 -0.23973487 -0.10463384 1.1836537 -0.1976291 -0.25456867
-0.86968136 0.107797 -0.004016596 0.04560515 -0.19144295 -0.0021746438 -0.6064554 -0.4810667
0.5841712 -0.7873822 -0.11195161 0.25133392 0.0073448787 -0.1822028 -0.24749511 -0.75694054

weight_ih_l0_reverse f4 [512, 64]
00000000: 27c7 0cbf cdea b23e d013 a13e d201 5fbf
00000010: 5458 56bf 6703 8dbe fdb1 0f3f f9c1 5e3f
00000020: 0508 cdbe 3d9b ebbd cc49 953e 845d 66be
00000030: fc39 32be d36d f5be ee33 4fbf 778a 333e
00000040: 2f79 e3be 015f 033f 1899 17bf 86ff ab3f
00000050: 4af3 fe3e 2712 153f dfa0 b73e f59a 79be
00000060: 843d 66be 0a2e 483e 8f89 6abf 198f 9dbf
00000070: c72e af3e 0a48 d0be afda 6d3f 064d 083e
00000080: 4ba4 b0bd 3b0d b3bd 59ad 6bbf 94fc 8ebe
00000090: 1b1c 3bbe 6fa4 f23e 8a71 7cbf 6c23 abbe
000000a0: e0f3 89be 161d afbf fb4c b7be 207c fbbe
000000b0: cff9 3fbe bca7 66bf 4560 8d3c c985 383f
000000c0: 610b cb3d 780d d13e 5043 29be 999e cfbe
000000d0: d434 aebe 40b9 f4bd cc5d a1be 68cf 0c3f
000000e0: 4f17 383f 38db 843f 2927 bebe 81b6 d6be
000000f0: 9790 87be 10d7 7d3f ef0a 343f 086d 15bf
00000100: 7fc3 7c3f af98 16bf 890e ab3d d5b4 2bbf
00000110: 697a bc3c 10b4 29be 89d6 b5be da3e f5bd
00000120: e87c 823f b76a 3e3f 074d f6be fdd6 673d
00000130: fcec 0b3f ec82 8cbd ccb8 583e c53c 93bd
00000140: 544e 253e 7183 e03d 8121 193f 1320 afbf
00000150: df0b 47bf c603 0fbf 05d9 23bf 836a 0d3c
00000160: 1532 af3d b5c6 1bbe 1e53 80bd 5074 813f
00000170: b5d9 ddbe d398 723e a29a 1fbe dece 21bd
00000180: c6c0 04bf 767a 7e3e dac3 423f 2a93 0abf
00000190: 96bf dfbe 86e7 15bf ce4b cbbd 718d bf3e
000001a0: 6926 fc3d 3f9a dc3d 4676 643e 2964 063f
000001b0: 0c90 513f 39b2 18bb 1dd0 d63e 7973 d1be
000001c0: b2f5 d63e 39e6 48bd dba9 d9be 302b 3c3f
000001d0: 155e f03e b2cc d7be 4407 943e 11bc 4b3d
000001e0: 72fb 0fbf 8c25 5dbd 3949 783e 23f4 29bf
000001f0: 5d3a e03d 3d53 17be 252e 6e3e 5bb9 ad3e
00000200: 2969 293f 0185 8c3e 1a26 48bf 303c e7be
00000210: 71d1 8cbe 1394 d9bd c14e 9d3e 0515 83bf
00000220: 014e a53f 03fc 083f 03a8 a53e c547 b53d
00000230: 16bb 4b3f 61d0 8e3f fad0 0d3e 5b6a 28bf
00000240: 678e 43be a4f0 763d 1c4f 27be bcbd a6bf
00000250: ffbf 38bf 9724 b03d 38a4 25bf 72c8 fbbd
00000260: a9f2 093e f1b0 bebc 8852 6a3f d1b6 903f
00000270: 973f cdbe 4cfe 9d3f 4fb0 03be d592 dc3e
00000280: b671 a23f ac58 03bf 31f2 883f 4390 bdbe
00000290: 93ef 543f 55f7 da3e 10dc b23e 6dea e5be
000002a0: 9220 1abe ea1a 893e e96d c33d 0fbe 113e
000002b0: 4049 443e 2e66 dfbb 39fa 19be ff5c 353f
000002c0: fbec f8bd d9b4 8a3e b162 09be 345f af3f
000002d0: d3d4 493e 872e 1b3f b0ae 843d e2be 083f
000002e0: 8f41 6a3f a1aa 853e 5934 83be c01d 843e
000002f0: c4e8 f53d 5717 2d3f d784 22be 82a2 273f
00000300: 491e b0bd 6ff1 6b3d 2d8a 963f 8ccc 3fbf
00000310: dd84 c53e f2f5 5f3f 93cc d1ba b320 383f
00000320: 94be c23f 225c cdbe a4bd 613f 049a 603d
00000330: 72d8 223f ade3 0d3e 2e9d 033f ac0d d83d
00000340: 1237 a83e 3e7e 2f3f bac8 17bd ef3b 1dbf
00000350: 23ae 153f 2c33 7b3e 4cb6 b43e faf7 ec3e
00000360: 4185 833f 111a 023e b59c 883e f10b 6c3f
00000370: 3be4 2e3f 3ae0 5dbe 9a2e e33c 4984 ac3d
00000380: 95bf 00bf 4d2e 06bf 43e8 a7be 7ea4 f83d
00000390: 662c 43bf 9106 eabf 7ccc ae3d 31aa c4bf
000003a0: 6a4a 15bf 38eb 2d3f 4997 44bf 8489 e5be
000003b0: d07e aa3e 0d67 95bd 1f64 06be 3088 973e
000003c0: 4967 11bf 78bc 0d3f 48ff 3bbf e4e8 353e
000003d0: 2922 363e f9c9 d2be 9957 8d3f e5eb 123e
000003e0: 08cf 43bf 5c0c be3c 7c98 db3e e611 2dbf
000003f0: b732 b13e a9e9 d5be 3df9 05be b703 ce3e
-0.5499138 0.34944764 0.31460428 -0.8711215 -0.8372853 -0.27541658 0.56130964 0.8701473
-0.4004518 -0.11504219 0.29157865 -0.22496611 -0.17404932 -0.47935352 -0.80938613 0.17533289
-0.44428393 0.5131684 -0.5921798 1.3437355 0.4979499 0.58230823 0.35864922 -0.24375518
-0.22484404 0.19548813 -0.9161615 -1.2309295 0.34215376 -0.4067996 0.9291181 0.13310632
-0.086250864 -0.08742758 -0.9206138 -0.27927077 -0.1827244 0.47391078 -0.98610747 -0.33425462
-0.26943874 -1.3680751 -0.3580092 -0.49118137 -0.18747638 -0.9009969 0.017257819 0.7207914
0.0991428 0.40830588 -0.16529584 -0.40550688 -0.3402468 -0.11949396 -0.31516874 0.55003977
0.71910566 1.03794 -0.37139252 -0.41936114 -0.264775 0.99156284 0.70329183 -0.58369493
0.98735803 -0.58826727 0.08352382 -0.670728 0.023007588 -0.16572595 -0.3551524 -0.119748786
1.0194368 0.74381584 -0.48105642 0.056601513 0.54658484 -0.06860909 0.21164244 -0.07189325
0.16143161 0.109625705 0.5981675 -1.3681663 -0.7775249 -0.5586513 -0.6400302 0.008631351
0.08554474 -0.1521252 -0.06265853 1.0113621 -0.4333016 0.2369111 -0.15586331 -0.039503925
-0.5185665 0.24851403 0.76080096 -0.54130805 -0.43700856 -0.585564 -0.09926568 0.374126
0.12312014 0.107716076 0.22310743 0.5249658 0.81860423 -0.0023299588 0.41955653 -0.4090841
0.41984326 -0.049047682 -0.42512402 0.735034 0.4694678 -0.42148358 0.28911793 0.0497399
-0.5624305 -0.053990886 0.24246682 -0.6638815 0.10948632 -0.14777847 0.2325979 0.33930477
0.66176087 0.27445224 -0.7818314 -0.45163107 -0.2750354 -0.10623946 0.30724147 -1.024079
1.291443 0.5350954 0.32354745 0.088515796 0.79582345 1.1157342 0.1384925 -0.65787286
-0.19097291 0.060288087 -0.16338772 -1.3026652 -0.7216796 0.08600729 -0.647037 -0.12294091
0.13471474 -0.023277732 0.9153218 1.1305791 -0.40087578 1.234323 -0.12860225 0.43080774
1.2690952 -0.5130718 1.0698911 -0.37024125 0.8317806 0.42766824 0.3493352 -0.44905415
-0.15051487 0.26778346 0.09542448 0.14232658 0.19168568 -0.0068176007 -0.15036859 0.70845026
-0.121545754 0.270911 -0.13416554 1.3700929 0.19710092 0.6061787 0.064786315 0.53416264
0.91506284 0.26106742 -0.25625876 0.25803947 0.12007287 0.6761374 -0.15870987 0.6548234
-0.085995264 0.057603296 1.1760918 -0.7492149 0.3857793 0.8748466 -0.0016006402 0.71924895
1.521441 -0.40109354 0.88179994 0.05483438 0.6361152 0.13856383 0.5141171 0.10549483
0.32854515 0.68552005 -0.037056662 -0.61419576 0.58468837 0.2453124 0.3529533 0.4628294
1.0275041 0.12705256 0.26682058 0.9220572 0.68317 -0.21667567 0.027732182 0.08423669
-0.5029233 -0.524144 -0.3279439 0.121407494 -0.7623962 -1.8283254 0.08535096 -1.5364438
-0.5831667 0.6793704 -0.7679334 -0.4483148 0.33299875 -0.07295046 -0.1312413 0.2959609
-0.56798226 0.55365705 -0.73436403 0.17764622 0.17786469 -0.41169718 1.1042358 0.14347799
-0.7648778 0.023199253 0.42889774 -0.67605436 0.34609005 -0.4177983 -0.13083358 0.4023721

weight_hh_l0_reverse f4 [512, 128]
00000000: 244d 49bf 1bfc 153f 1584 94bd 1142 fdbe
00000010: ad2b 38bf 7c76 223e 3369 07bf 43b9 6dbf
00000020: b85b fd3e b75e bfbe 8fc9 8abe a31b 31bd
00000030: b54d 003f 7b96 f43e 2884 a53f 0634 0fbf
00000040: 8508 553f 328c 243e 80ac 043f 5037 26bf
00000050: 0af4 e2be 4da9 1cbe 71ef 9a3e 4492 a23f
00000060: 2c7d 8d3e f8d4 043e 6d54 403f 9ce7 863e
00000070: f787 df3e c1e9 94be efa0 54be dd02 b7bd
00000080: e4f1 c03e 782f 82bf 2490 d0be b142 d5be
00000090: f50b f8be 0cd6 8ebe de23 f23e 2830 a53e
000000a0: 446c 283f c64b 33bd 4fe3 5bbf e934 5fbf
000000b0: 4a9c 943f 3c95 263e 4de7 143f ce6a 573f
000000c0: 3323 1ebf af64 2cbd 0b3e 28bf 7a56 033f
000000d0: 7522 0dbf bb60 d2bf e072 ea3e 53ba 92bf
000000e0: 3e7f cebe f82c 25be fcbc 013e eee6 363d
000000f0: 54e4 87be 7fb1 1fbf 9cdd 08bf 47d6 b8be
00000100: 492d 88bf 959d 493f 7062 b63e 9b38 8c3c
00000110: 0778 803f 05e3 9dbe 4efd 6cbf c0ef 88bd
00000120: b34d 3e3e 251d 1d3f 23bd 533f 9409 6f3f
00000130: f16b 3a3e ff28 9b3e a20c 1a3e 9a39 a3bf
00000140: 5715 a9be d2a6 b6bf 9fbe 67bf a3aa b6be
00000150: ad12 c5be a4cc 1bbe 091c a43d 6e5e 9fbe
00000160: ce67 59bf 4642 50bf c4a5 9bbe 2cd6 903e
00000170: d448 ae3e aff4 56be f802 19be b024 2cbf
00000180: 6623 7ebe cb30 c93d 4e7b a83e 6542 04be
00000190: 2fe2 23bf 17fa 1ebe 4376 ab3e ef40 9ebe
000001a0: 9e10 9ebf 7502 62be f4fd febe 4b39 863e
000001b0: 730b 20bf 9512 d6be f40a 73bf cded b8bd
000001c0: 45cd d33e 8519 1d3f 1efd 5abf b854 a7be
000001d0: b420 9abe 8941 503c 8931 5dbe c408 8dbf
000001e0: 0a68 0dbf 0cca 23bf fa28 63be 1c7e cdbd
000001f0: cea8 253f af66 823f 6991 43bf f5e8 6dbf
00000200: 278c a63f 4c35 013e 3b65 013f 10f8 983e
00000210: d7ca 72bf e9f3 0ebd 2cad 423f 6906 59bf
00000220: ad54 cdbe 960a cd3e 00fb 793e 3486 76bf
00000230: f067 3abf eb2e bb3e 893f 083d 27e5 113f
00000240: 20e3 d6be 90bd a13e 5f45 193d eadb e6be
00000250: 511b 40bd 096f 96bf 5499 d83f 606c f63e
00000260: f80a 35bf 9fe1 7dbd 2484 143e 649b 3cbf
00000270: 10a1 883f 7129 e6bd 8ec6 343f 50e6 fbbc
00000280: d2cb 9d3f 45ec c23d 4bb6 26bf 8e97 6e3e
00000290: cae7 debe acf8 91be 6529 f1be a1e9 32bf
000002a0: 49f2 d83e 820b 22bf 9633 713f 3f64 dd3d
000002b0: 2af7 adbe b892 bf3f 6f1a c8be 2f4d 863d
000002c0: 9097 793d 3bc3 2dbf 08ea 853f e979 e73e
000002d0: a519 053f b2cc d1bd 4f3d 853f d1ec 15be
000002e0: 7251 ccbe 2643 ae3e e714 a2bc fc44 18be
000002f0: 8dd3 c3be c26b 8abf ca6f d83e 0232 853f
00000300: 331e 343f c63e a83f 6c47 97be abb3 b5bf
00000310: 4e94 983c 0b2e 19bc 7222 8f3e 2565 dd3e
00000320: 7f63 1b3f c61c 243f 5e0e b5be 1bab 80bd
00000330: a878 1dbf fc74 8cbf 8604 1cbf 158b 80bf
00000340: 1622 c53e 4815 9a3d c9eb 3abe 90c2 013e
00000350: cac0 4b3f 771e 0bbf e170 29bf 8cde e7be
00000360: e0bc c83e 423d aabe 6af4 68bf 045b a43f
00000370: 5e2f 16be 643a 1f3f 71d8 fbbd a829 84bf
00000380: f955 7ebe 72ff eb3e e0d7 36be ad98 bb3e
00000390: 207f ab3f 0c9c ba3f 6cf3 aebd fb3a 113f
000003a0: fe75 9b3f 08bf 533f de91 52be 31f7 16bf
000003b0: 7214 66be dc13 97bf 75af bc3d 58e4 ad3e
000003c0: a628 43be e18f eebd 96a9 a83f 7bc9 40be
000003d0: 820d 67be 89a0 f73c f60e e93d 86ff 9cbf
000003e0: d47a 82be dafe ccbe 1143 28bd 4f5f 18bf
000003f0: 3a63 0e3e fee6 29bf a27b 053e 9e0e d03e
-0.7863333 0.5858781 -0.07251755 -0.49464467 -0.71941644 0.1586551 -0.52894896 -0.9286081
0.49484038 -0.3737695 -0.27106902 -0.043239247 0.5011857 0.47771057 1.2930956 -0.55938756
0.83216125 0.16069105 0.51825714 -0.6492815 -0.44326812 -0.15298958 0.30260804 1.2700887
0.2763456 0.12971866 0.75128824 0.2634858 0.4365842 -0.2908459 -0.20764516 -0.08936093
0.37684548 -1.0170736 -0.4073497 -0.41652444 -0.48446622 -0.2789768 0.4729299 0.32263303
0.657902 -0.043773435 -0.8589372 -0.8719011 1.1610196 0.16267866 0.58165437 0.84147346
-0.6177246 -0.042088207 -0.6571967 0.5130383 -0.551307 -1.643577 0.45790768 -1.1463112
-0.40331453 -0.16130435 0.12669748 0.044653825 -0.26541388 -0.6238021 -0.5346315 -0.3610098
-1.063882 0.78756076 0.35621977 0.017116835 1.003663 -0.30837265 -0.9257401 -0.06686354
0.18584327 0.61372596 0.82710475 0.9337399 0.18205239 0.30304715 0.15043882 -1.2751954
-0.33024094 -1.426966 -0.9052524 -0.3567706 -0.3849081 -0.15214783 0.0801316 -0.31126732
-0.8492402 -0.81351125 -0.30399907 0.282884 0.34039938 -0.20991777 -0.14942539 -0.6724348
-0.24818191 0.0982376 0.32906574 -0.12915953 -0.64017004 -0.15525089 0.33488664 -0.30908915
-1.2348821 -0.2207125 -0.49803126 0.26215586 -0.6251747 -0.41811052 -0.9493859 -0.09029732
0.41367546 0.61367065 -0.85542476 -0.32681823 -0.30103076 0.012710937 -0.21600927 -1.10183
-0.55236876 -0.63980174 -0.221836 -0.10033819 0.647107 1.0187587 -0.76393753 -0.9293359
1.3011521 0.12617987 0.5054509 0.29876757 -0.9484076 -0.03490058 0.7604549 -0.84775406
-0.40103665 0.4004714 0.24412155 -0.9629853 -0.72814846 0.36559233 0.033263717 0.56990284
-0.41970158 0.31589937 0.037419673 -0.45089656 -0.04690105 -1.1752635 1.6921792 0.4812956
-0.7071986 -0.061982747 0.14503533 -0.7367461 1.0674152 -0.11238373 0.7061547 -0.03074947
1.2327826 0.09517721 -0.65121907 0.23300001 -0.43536216 -0.28510034 -0.47101894 -0.6988774
0.4237235 -0.6329881 0.9421934 0.10810136 -0.33977634 1.496665 -0.39082667 0.0655769
0.060935557 -0.67876023 1.0462046 0.45210198 0.51992255 -0.10244121 1.0409335 -0.1464112
-0.39905888 0.34035605 -0.019785358 -0.14870065 -0.38247338 -1.0814135 0.42272788 1.0405886
0.7035858 1.3144157 -0.29546678 -1.4195455 0.018625405 -0.009349356 0.27955967 0.4324123
0.60698694 0.64106405 -0.35362524 -0.06282636 -0.6151223 -1.0973201 -0.609444 -1.0042444
0.38502568 0.0752359 -0.18254007 0.12671876 0.7959105 -0.5434336 -0.66187865 -0.45286977
0.392066 -0.3324986 -0.90997946 1.2840276 -0.14666507 0.6219847 -0.12297142 -1.0325212
-0.24837483 0.46093327 -0.17855787 0.3663992 1.339817 1.4578872 -0.08542523 0.5673062
1.2145383 0.82713366 -0.20563456 -0.58970934 -0.22468737 -1.1802936 0.09213153 0.33963275
-0.19058475 -0.116485365 1.3176754 -0.18826859 -0.22563747 0.030227916 0.11379807 -1.226548
-0.25484335 -0.40038186 -0.041079585 -0.5952043 0.1390504 -0.6636809 0.13035443 0.40636152

bias_ih_l0_reverse f4 [512]
00000000: 4af8 b03e b4aa ee3d 83ad 313e 164d c63d
00000010: 5c31 303e bac6 96bf 6b05 223e 8dfe e6bb
00000020: d704 16bf 3b64 92be f3f8 1ebe d5e2 3b3f
00000030: 516d f63e 768a 09bf ffbd e8be 0a94 97bf
00000040: 56a0 963e a46c 003f 9aa8 6cbf d97c 95be
00000050: 218b e8be e727 073f 8896 16bf 468f 2dbf
00000060: 2dad 213e 4a5f fcbe e067 e0be a565 f63d
00000070: caf0 16bf 176b 0dbe b737 043f 4208 2e3e
00000080: 4a6a 86be 673e 9d3e cd48 053e 816b 4ebe
00000090: 44c5 9a3e efbf e83d 75a1 93bf 2dec 7c3f
000000a0: 3131 083e 07e0 9b3e b8b9 d23e 22f0 0dbf
000000b0: 0797 493e 642b 84be cc13 bcbd cd39 a4bf
000000c0: 11cb 313f 8d19 efbd dac9 cbbe c78e 94bf
000000d0: 64aa 343f bc20 4abf bcff 383e 2952 cebe
000000e0: 5c94 383f f34e 9e3e 73a9 d0be 360d 8bbf
000000f0: fd48 853e 9964 0e3d fbb1 a3be 409e 45be
00000100: b253 ba3e edba 7cbf 569d 03be c2be b2be
00000110: 4b68 a1bc 76a3 fbbe 6aff 853f 94ee 8b3e
00000120: 89e0 92bf 95fb 88be 3ae7 713f fe1d 493f
00000130: c156 9c3e a6a9 963e 4e42 85bd 3429 cdbe
00000140: 1a54 003e c1b8 543f 1ba4 583f e5e2 65be
00000150: 4ba6 06be c020 cebc 7505 15bf 842b 893e
00000160: 4a7c 59bf 0d78 453f 9443 7ebf 598a 81bf
00000170: c31b 073f 864b af3e bd8a 833e 557a 023e
00000180: d733 38be 7405 40bd c0e7 6a3e 3789 2b3e
00000190: c163 613e 8159 7cbe e98a 9cbe 92e4 92be
000001a0: d8c5 cdbc 395b 733e 5a98 49bf 4678 1cbf
000001b0: 33c8 c83a 4c2e 1bbf 81ee 8cbe 18d9 5d3f
000001c0: 693e 643e 4349 99bd bcf1 4c3f 1203 7a3e
000001d0: 24c2 a33f 27e7 19bd 3842 8fbf 2f5b 99be
000001e0: b667 56bf 8b91 4a3f 6806 5c3f b809 f2be
000001f0: 4c91 babe 98b2 99bc 1a06 8a3e af2e 9b3f
00000200: 4146 05bf 265d 05be cf5a c6be 0055 5bbf
00000210: aeee 3bbf 0431 14be 4aa4 94bd ca9c 4cbe
00000220: 9f96 a93c 0fcb 54bf 855c e33e b375 06bf
00000230: 35de 0b3e c37a 1ebf 9293 d03e 4cc7 643e
00000240: 8919 d9be bb69 27bf 346c d8be f910 f1bc
00000250: c5f1 81be f11e e13e 37d7 b73e d514 80be
00000260: 044c 29bf 2d54 adbe 8c6d e03d 78aa 053e
00000270: 93c8 93bd 936a 823e fa46 1e3f 1951 733f
00000280: c925 2ebf b667 673e b5e3 83bf bc50 ccbe
00000290: e567 12be e6df 94bf 2e0f 13bf 3bf1 64bf
000002a0: bf4a acbe 072e 2abc 3f0a 483e 53ec 82be
000002b0: 4163 1ebe 4064 01bf 5e89 453e 4ebf 27bf
000002c0: bd8e 0d3f 98f9 7dbf c8c7 183f 0f1e afbe
000002d0: 6716 533e 2854 6abe 23b0 59be 4587 8cbd
000002e0: 42ec 80bf 81bf df3e 6fcb 10bf 4180 ed3e
000002f0: ca92 73be 8d7b 22be ec5f 4bbe 3a00 19bf
00000300: eaaa 153f 13e8 59be 8b36 cebd eaf5 4d3c
00000310: 8b37 4dbf 0da7 203f 44a6 29bf 50a4 7e3e
00000320: 97af 27bf 46a7 9e3e 2ca3 60bc 503d d8be
00000330: a73f 51be baf8 273d fd37 8dbf bd77 babe
00000340: 7c1d ccbe 6928 d8be b5d7 16be 302d 33be
00000350: ed84 1b3e 2e88 e5be a11e d5be fae7 41bf
00000360: 93eb 433e 0409 893e e260 97be 2128 6abc
00000370: f7c4 043e 0942 14bf f22e b1be 5866 183f
00000380: 610c b83e 6093 8bbf 415a 25bf c4e3 e8be
00000390: 3fae ebbe 20e9 ca3e b49b 2b3e f02b 84bf
000003a0: f940 dd3d 91da 2ebf decc fcbe 4c90 173e
000003b0: d895 3ebe 91ec 2fbc 4761 d2be 5ba1 49be
000003c0: 469f 863e 0030 7fbe 471c 52bd d5d7 bebe
000003d0: e668 2abf 7a47 0dbf dddf d93e f29c 5a3d
000003e0: 017f 303e 0cde 71bf 55af ba3e 2008 9abe
000003f0: e72f 27bf 535a 40bf 6db0 40bf 8adb 94bf
0.3456443 0.11653653 0.17351346 0.09682672 0.17206329 -1.1779397 0.1582238 -0.007049388
-0.58601135 -0.28592095 -0.15524654 0.73392993 0.48130277 -0.537269 -0.45457456 -1.1842053
0.29419202 0.5016577 -0.92444766 -0.29196814 -0.45418647 0.5279526 -0.5882344 -0.6779674
0.15788718 -0.4929145 -0.4382925 0.12031106 -0.58961165 -0.13810383 0.51647514 0.16995338
-0.26252967 0.30711672 0.13016053 -0.20158197 0.30228627 0.113647334 -1.1533648 0.98797876
0.13300015 0.30444357 0.41157317 -0.5544454 0.19686519 -0.25814354 -0.091834635 -1.2830139
0.6945048 -0.11674795 -0.39802438 -1.1606072 0.70572495 -0.789562 0.18066305 -0.40297058
0.7210138 0.30919608 -0.4075428 -1.0863407 0.26032248 0.034763906 -0.31971726 -0.19298649
0.3639198 -0.98722726 -0.12852988 -0.34911162 -0.019703051 -0.49148148 1.0468571 0.27330458
-1.1474773 -0.26754442 0.9449345 0.7856139 0.30534938 0.29426306 -0.06506787 -0.40070498
0.12532082 0.8309441 0.84625405 -0.22449835 -0.13149373 -0.0251621 -0.5821145 0.26791012
-0.84955275 0.7713631 -0.99321866 -1.0120345 0.52776736 0.34237307 0.25691786 0.12741978
-0.17988525 -0.0468802 0.22939968 0.16751562 0.2201071 -0.24643518 -0.3057473 -0.2869001
-0.025118753 0.23765267 -0.78748095 -0.6112102 0.0015318453 -0.6061752 -0.27525714 0.86659384
0.22289433 -0.07484677 0.8005636 0.24415234 1.2793622 -0.03757396 -1.1192083 -0.2995238
-0.83752 0.7912833 0.85947275 -0.4727304 -0.36438978 -0.018761918 0.2695778 1.2123622
-0.52060324 -0.13023815 -0.38741156 -0.85676575 -0.7341107 -0.14471823 -0.07257898 -0.19981685
0.020701705 -0.8312234 0.44406524 -0.52523345 0.13658984 -0.6190607 0.40737587 0.2234165
-0.42402294 -0.65395707 -0.42270052 -0.029427039 -0.25379768 0.4396892 0.35906383 -0.25015894
-0.66131616 -0.33853284 0.109583944 0.1305331 -0.07215991 0.25471935 0.6182705 0.9504562
-0.68026406 0.22598156 -1.0303866 -0.39905345 -0.14297445 -1.1630828 -0.5744504 -0.8943059
-0.33650777 -0.01038695 0.19535159 -0.25570926 -0.1546755 -0.50543594 0.19290683 -0.6552628
0.55295926 -0.99208975 0.5967984 -0.3420262 0.20614015 -0.22883666 -0.21258597 -0.06861738
-1.00721 0.43700793 -0.56560415 0.46386912 -0.23786464 -0.15867443 -0.1986081 -0.5976597
0.5846392 -0.21279936 -0.10068997 0.0125708375 -0.80162877 0.627549 -0.66269326 0.24867368
-0.65502304 0.30986995 -0.013710778 -0.42234278 -0.20434438 0.04100869 -1.1032711 -0.36419478
-0.39866245 -0.4221833 -0.14730723 -0.17497706 0.15187426 -0.4483046 -0.4162493 -0.75744593
0.19132833 0.2676469 -0.29566103 -0.014291794 0.12965761 -0.5791326 -0.3460613 0.59531164
0.35946944 -1.090435 -0.6459084 -0.4548627 -0.46031377 0.39630985 0.16758615 -1.0325909
0.10803408 -0.68302256 -0.4937505 0.14801139 -0.18611848 -0.010737554 -0.41089842 -0.19690458
0.2629339 -0.24920654 -0.0512965 -0.37274042 -0.6656631 -0.5518719 0.42553607 0.05337233
0.17235948 -0.9447944 0.36461893 -0.30084324 -0.6530747 -0.75137824 -0.75269204 -1.1629498
